goose_recognition/GooseFinderV1.pth (torch, 39119 bytes, 10 tensors)

weight f4 [10, 3, 3, 3]
000000 6a 1d bf 3d 2a a3 2a 3e 8a ea 9e bd 27 65 13 3e
       0.09331782 0.16663805 -0.077595785 0.14394055
000010 f6 15 83 bc a8 fd e2 3c 35 ad 0b be b0 17 00 3e
       -0.016001683 0.027708843 -0.13640292 0.12509036
000020 95 36 13 3e fd cc 64 be bd 88 1f 3e 1c f5 09 ba
       0.1437629 -0.22343822 0.15579505 -0.00052626594
000030 6b 6e b3 3d 06 ac 04 3d c2 71 95 3d ae 16 a6 bd
       0.08761295 0.032390617 0.07297088 -0.081097946
000040 77 29 10 3e 35 2e 3e bc 0e 97 3c be f6 51 1f 3d
       0.14078318 -0.011607696 -0.18416998 0.038896523
000050 ae e7 e9 bd 05 87 a7 bd 1b e6 88 bd 5f ab 00 3e
       -0.114211425 -0.0818005 -0.06684514 0.12565373
000060 60 24 59 be 9a ae d0 bd 10 61 b1 bd 03 64 e0 bd
       -0.21205282 -0.101895526 -0.08661091 -0.10956576
000070 85 4c d2 3c 15 c5 36 be a0 9a 39 3e 92 81 20 be
       0.025671253 -0.17848618 0.18125391 -0.15674427
000080 27 a3 27 3e 3a 99 25 3d 80 c1 6e bd f1 31 0a 3e
       0.16370831 0.04042933 -0.058290005 0.13495614
000090 9b 98 ed 3c 0a 6a 24 3e ec 78 f7 3c e8 34 80 bd
       0.029003432 0.16056076 0.030209027 -0.06260091
0000a0 24 92 55 3d 7a 34 2e bd 79 b4 a2 3d 73 93 2e 3e
       0.052141324 -0.042530514 0.07944579 0.17048435
0000b0 da 43 f6 3d 91 5e b8 bd ef cb e8 3d 4f b8 38 3d
       0.120246604 -0.09002412 0.11367022 0.045097645
0000c0 79 67 b5 3d 49 61 fb bd 6f 5c 39 be 31 8d b0 bd
       0.088576265 -0.12274415 -0.18101667 -0.0862068
0000d0 92 c7 21 be 7d 87 28 3e cc c3 50 3d ac 98 9d 3d
       -0.15798786 0.16457935 0.050967976 0.076951355
0000e0 a8 eb b5 3c 1d c0 ec bb d7 5e 18 3e a5 76 2c be
       0.022207096 -0.00722505 0.14879929 -0.16842134
0000f0 2b 41 89 3c 89 4a 09 be 9c 0a 07 3d 8c 76 96 bd
       0.016754707 -0.13407339 0.032969102 -0.0734683
000100 3c e6 49 3d 8e f8 ae bd 4a 59 21 3e c2 4f f1 bd
       0.049291834 -0.08543502 0.15756717 -0.11782791
000110 af cc 16 be 49 e4 e3 bd 06 3e 2c 3e 41 d2 0c 3d
       -0.14726518 -0.11127526 0.16820535 0.0343802
000120 2b e7 20 3e 0a f2 38 be 07 fe 78 be bc a3 46 be
       0.15713184 -0.1806108 -0.24315654 -0.19398397
000130 64 a0 28 be 96 85 a8 3c 79 e1 fe 3c 87 79 f5 3d
       -0.16467434 0.020571511 0.031113373 0.1198607
000140 c9 f1 22 be 86 b1 bf bd 4e 35 0a 3e ff 7b d0 bc
       -0.15912546 -0.09360032 0.13496897 -0.025449751
000150 16 f5 1d 3e bc bb ac bc f7 77 20 3e 26 c2 08 be
       0.15425524 -0.021085612 0.15670763 -0.13355312
000160 65 02 ca bd ed c1 96 3d a2 e1 a3 3c 1a f6 a0 bd
       -0.09863738 0.07361207 0.020005051 -0.0785944
000170 b4 f9 e8 3d da 74 d6 3d ff c5 3c be 12 f1 f1 bd
       0.11375752 0.104715064 -0.18434905 -0.11813559
000180 1a 19 09 3e e0 2e 07 be 06 1b de bd 9b 34 23 be
       0.13388482 -0.13201475 -0.10844998 -0.15938036
000190 04 d0 c6 bd cb 75 c9 3d 31 28 b0 bb f3 48 17 be
       -0.097076446 0.0983692 -0.005375885 -0.14773922
0001a0 c2 72 23 3d f1 5a 06 be 8d 35 4d be ea 6a d7 bd
       0.039904363 -0.13120629 -0.20039959 -0.10518439
0001b0 bf fa 1a be 28 75 bc bd fd 4f 84 3e b2 f5 4a 3d
       -0.15134715 -0.09202033 0.25842276 0.04955072
0001c0 20 1b ae 3d 93 d1 eb bd 94 a7 fa bd ec 00 5e bd
       0.085012674 -0.115145825 -0.12238994 -0.054200098
0001d0 ff e8 99 3d 0b 7e 35 be a9 3c 9d bd 68 5d 8f bd
       0.075151436 -0.17723863 -0.07677586 -0.07000238
0001e0 ed 0d 66 bc 9c 23 8e bd c3 85 02 3d a5 1a 14 be
       -0.014041406 -0.06940386 0.031865846 -0.14463289
0001f0 e5 73 0b be 56 4e 9f bd 11 0b 8a bd 0e ca 11 be
       -0.13618429 -0.07778613 -0.06740392 -0.14237234
000200 55 00 51 3e a6 02 29 bd de 90 35 3e de 4b de 3d
       0.20410283 -0.04126229 0.17731044 0.10854314
000210 d2 19 25 be ea 70 13 3e 2c ae 29 bc 6a 52 97 bd
       -0.16123131 0.14398542 -0.010356467 -0.07388766
000220 c1 bf e1 bd 70 a2 5a be 2f 89 46 3d 41 a1 1d 3c
       -0.11022902 -0.21351027 0.048470672 0.009620965
000230 01 08 45 3d 10 aa 2e be fc 35 3a 3e af fa 36 be
       0.048103336 -0.17057061 0.18184656 -0.17869066
000240 92 d0 9e bc e1 93 d4 3d da ea b8 3d 2b 0f 24 3e
       -0.019386563 0.10379768 0.090291694 0.16021411
000250 13 0e 72 3e 9b 93 29 be 6e c3 3b 3d 01 51 11 bd
       0.23638181 -0.16560213 0.045840673 -0.035477642
000260 46 4d 27 bd 96 81 14 be 7a 10 68 3e b7 bd 3f be
       -0.040845178 -0.14502558 0.22662535 -0.18724714
000270 cb cb c5 3d 8c a7 fd 3d a1 b7 9f 3c 30 d0 f6 bd
       0.09658011 0.12385473 0.01949674 -0.12051427
000280 60 c2 5c 3e 07 40 15 bc bd 93 e6 bb 32 71 4b be
       0.21558523 -0.009109504 -0.0070366547 -0.198674
000290 57 1e 98 3d 99 ae 8e bd 7e 3b 04 be d9 e8 17 3e
       0.07427662 -0.069668956 -0.1291332 0.14834918
0002a0 15 b2 6f 3b 39 72 18 be 0e f2 fc bd 3b 65 fd 39
       0.003657465 -0.14887322 -0.12350856 0.00048331343
0002b0 58 65 fb 3d ce 9b 6a bd 7e 82 d4 bd 0d 52 63 bd
       0.12275189 -0.057277493 -0.10376452 -0.05549817
0002c0 f6 0d 21 be 59 4b 9c 3d 52 d9 20 3e 01 33 4c be
       -0.15727982 0.07631559 0.15707901 -0.19941331
0002d0 13 ca 0e 3d 6a ff c0 3d 9d 23 aa 3c 90 10 a4 bd
       0.03486068 0.09423716 0.020768935 -0.080109715
0002e0 36 f7 be 3d dc dd b0 3d 91 41 79 3d 64 a4 31 bd
       0.093244955 0.08636066 0.060853545 -0.043369666
0002f0 14 c6 8d bd 17 4d 74 3d cd 46 5e 3c 70 81 da bc
       -0.06922546 0.05964383 0.013566685 -0.026673049
000300 e8 c1 22 3e f7 24 54 3e 61 fb 0c 3c 56 0b e9 bb
       0.15894282 0.20717226 0.008604855 -0.007111947
000310 8c 93 31 3d 79 22 d5 3b f8 d0 b5 bb 15 26 85 3c
       0.043353602 0.0065043536 -0.0055485927 0.01625351
000320 ad 16 63 be 60 eb 04 be c7 db eb 3d c4 4d b6 3c
       -0.22176619 -0.12980413 0.115165286 0.022253878
000330 3b 75 8a bd 4c a5 28 be c0 e0 36 be 24 3f 30 be
       -0.06760641 -0.16469306 -0.17859173 -0.17211586
000340 73 db 2f bd a9 7b ac 3d 87 d5 e9 3d 84 9a c2 3d
       -0.042933892 0.08422024 0.1141768 0.09502128
000350 41 94 24 be f3 6a f0 bd 39 35 9c bc 23 f2 43 3e
       -0.1607218 -0.11739149 -0.019068347 0.19135337
000360 ea 57 59 3c 47 d5 9f bd 10 13 aa 3d e6 04 e6 bd
       0.013265589 -0.07804351 0.08304417 -0.11231403
000370 a2 aa 34 be 18 b1 01 3e 15 16 04 be 00 12 bd bd
       -0.17643216 0.12665212 -0.12899049 -0.09231949
000380 f6 51 5b be 9f 4b 18 3e 9f 7f 1f 3e 55 ab c6 3d
       -0.21417984 0.14872597 0.15576027 0.09700648
000390 92 d5 fe bd 8b 5b 41 be ff bc 0a be f3 45 19 3e
       -0.12443079 -0.18882577 -0.13548659 0.1496809
0003a0 f3 a3 bc 3d a4 95 37 3e 3a ea 03 3e a4 12 80 3d
       0.09210958 0.17928177 0.12882319 0.062535554
0003b0 18 18 da 3c b8 69 03 be 52 a0 1f be e2 9a 21 be
       0.026622817 -0.12833297 -0.15588501 -0.1578174
0003c0 3c 57 ba 3d ad 39 bf bd bc ab b8 bc 97 7d 90 bd
       0.0909867 -0.09337173 -0.022542827 -0.07055204
0003d0 da bc 28 3c 30 b1 32 be 41 a9 2d bd 1a 11 12 3e
       0.010298932 -0.17450404 -0.04239774 0.14264336
0003e0 8a 56 71 bd 67 ae 48 3e c6 a9 49 3c 0f 82 14 be
       -0.05892042 0.19597779 0.012308544 -0.14502738
0003f0 c6 bb 9c bb b4 23 58 bd b2 73 c6 bd ae cc e1 bd
       -0.0047831265 -0.052768424 -0.09690036 -0.11025368

bias f4 [10]
000000 af f4 28 3d ea ff 59 be 45 73 e9 3d 64 3c 25 3e
       0.041248973 -0.2128903 0.11398939 0.16136318
000010 8b 68 60 3e 21 f5 7c bb 8e 72 1f be 6c cb 30 3c
       0.2191488 -0.0038598257 -0.15571043 0.010790687
000020 d0 70 10 3e cf c0 0c be
       0.14105535 -0.13745426

weight f4 [10, 10, 3, 3]
000000 10 d8 66 bd 3c 43 86 bd 2e e6 cf 3c b9 49 b2 bd
       -0.056358397 -0.06555793 0.025378313 -0.08705468
000010 3c f1 56 bd f4 f2 3e bc b4 e9 06 be 67 17 95 3d
       -0.052476153 -0.011654604 -0.13175088 0.07279854
000020 9d eb c6 3d fc db dc bd 09 96 b5 bd 1d 49 cc bc
       0.097129084 -0.10784146 -0.088665076 -0.024937207
000030 7f 71 27 be 69 a6 09 be 5f c2 5a 3d ea 45 d7 bd
       -0.16351889 -0.13442387 0.053408023 -0.10511382
000040 9c 6c a3 bd 33 20 81 3c 4a f0 6d 3c 50 14 49 bb
       -0.079797 0.015762424 0.014522621 -0.0030682273
000050 c8 09 38 3d 8a af 1e 3d 2f 3a 31 3b a8 71 45 bc
       0.044931203 0.038741626 0.0027042737 -0.012051024
000060 12 69 c0 bc c1 9a fe 3d 02 e1 a6 bb 4a 22 d0 3d
       -0.023487601 0.12431861 -0.005092741 0.1016279
000070 1b 2f 24 3d c2 94 9a 3d bd 0b 1a 3e 15 a2 e0 3d
       0.040083986 0.075479046 0.1504354 0.10968415
000080 0e 5f fa bc 84 4b 2e 3e dd 5a 72 3e 88 d2 30 3e
       -0.030562904 0.17020994 0.23667474 0.17267811
000090 b4 37 2f 3e 22 50 84 3e 02 5f 0d 3e f1 ab d7 3d
       0.17111093 0.25842386 0.13805774 0.10530842
0000a0 f4 55 ad 3d 38 47 15 3e 67 e0 44 3e 5c 4f 7a 3e
       0.0846366 0.14577949 0.19226228 0.24444336
0000b0 c5 9b 18 3e ec 65 b3 bd 0a 92 d2 bd ca 51 e4 bd
       0.14903171 -0.087596744 -0.10281761 -0.111484125
0000c0 c1 72 d0 bd 31 8e 24 bd db de b8 3d df fa 62 3c
       -0.101781376 -0.040174667 0.09026881 0.013853758
0000d0 9e 8b b8 bd e7 f0 8f bd 80 e2 47 3d 80 86 bf bd
       -0.09011005 -0.0702837 0.04879999 -0.09351826
0000e0 18 0d 40 bd 60 7c 4c 3d ad 39 a4 bd c5 ee 4c bd
       -0.046887487 0.0499233 -0.08018813 -0.050032396
0000f0 8c 07 10 bc 2b c3 57 bd 37 25 6a bd 0f 2c 8c 3c
       -0.008790862 -0.05267636 -0.057164397 0.017110853
000100 f9 0f ad 3c 6b e9 81 3d 5b 82 2a 3e b8 56 96 3c
       0.02112578 0.06343349 0.16651289 0.018351898
000110 fb a3 1c 3c eb 83 2d 3e 42 d6 20 3e c3 94 54 3e
       0.00956058 0.16944854 0.15706733 0.20759873
000120 40 08 42 3e 6d fb 21 3e e3 eb 48 bd 3b f2 d3 3d
       0.1894846 0.15818568 -0.049053084 0.10348936
000130 95 d6 15 3e 13 df 03 3d 58 d7 c7 bc 2f 5b 0c 3e
       0.14632638 0.032195162 -0.024394676 0.13706659
000140 f9 0c c3 bc b4 ea f1 3d df d3 c0 bd 39 36 aa 3c
       -0.023809897 0.11812344 -0.09415411 0.020777809
000150 a9 a0 ea 3d 3d b5 34 bd da ef 3a bc d6 8c 0e 3e
       0.11456425 -0.044118155 -0.011409724 0.13920912
000160 08 a6 4f 3d 3d 54 94 3d a4 58 aa 3d a4 d7 7a 3d
       0.05069545 0.0724263 0.08317688 0.061240807
000170 54 ed 49 bd 06 25 f2 bc 6e ea a2 bd 19 86 2f bd
       -0.0492986 -0.02955867 -0.0795487 -0.042852495
000180 31 fd 0d 3c 75 e6 6e 3d 69 01 bd 3d 40 a5 ec bd
       0.008666323 0.05832525 0.092287846 -0.115549564
000190 1e 2d a7 3d a5 26 89 bd b7 d9 e9 3c 2b bf d4 3d
       0.08162902 -0.06696824 0.028546197 0.10388025
0001a0 89 25 99 3c 96 9c b1 3d f5 1c 9a bd 9c 45 d4 bc
       0.018694656 0.086724445 -0.07525054 -0.025912099
0001b0 39 3e aa 3d a6 38 ec bc 25 a5 de bc 2c db 8a bc
       0.08312649 -0.028835606 -0.027178356 -0.016950212
0001c0 d3 da 93 3d b0 94 40 3d 48 b4 6e 3d bf 36 7f bd
       0.07219472 0.0470168 0.0582774 -0.06230807
0001d0 45 a8 c0 bd 24 98 8d 3d 72 46 bd 3d d9 a3 bf 3b
       -0.09407095 0.06913784 0.09241952 0.0058483896
0001e0 43 b1 95 3c 8c 3b 08 3e b1 5b 8a 3d 66 3b d6 3d
       0.018273002 0.13303965 0.0675577 0.10460548
0001f0 59 b3 a5 3d 7a ad a0 3c 71 be 03 bc e4 38 af 3d
       0.080908485 0.01961397 -0.00804101 0.08555773
000200 02 d8 a5 3d d9 3e fc 3d 98 ae d2 3d a7 65 c3 3d
       0.08097841 0.12316675 0.10287207 0.09540873
000210 9d 74 3b 3e cc 14 28 3e 85 ad 5a 3e cf d1 23 bd
       0.18306203 0.16414183 0.21355255 -0.03999501
000220 c0 ca 45 bd 28 29 d3 3d c5 19 8a bd 9d 8b b9 bd
       -0.04828906 0.10310584 -0.067431964 -0.09059832
000230 a1 83 35 3d 5c 14 14 bd 41 49 c0 bd 58 4d e9 3d
       0.044314984 -0.03615223 -0.09388972 0.11391705
000240 4b c2 91 3d f9 c9 2a 3c c6 ee 94 bb 91 b4 eb bd
       0.071171366 0.010424131 -0.0045450656 -0.1150905
000250 a3 44 6d bd 35 e9 01 3d 81 06 77 3d 70 d0 ef bc
       -0.057926785 0.031716544 0.060308937 -0.029274195
000260 8b db 1d bd a2 bf 1b 3e 39 4e fa 3b cc f3 20 3e
       -0.03853945 0.15209821 0.0076387194 0.15718001
000270 82 9b 97 3d 49 f7 d2 3d 2e bd 81 3d 1e e4 22 3e
       0.07402708 0.10301072 0.06334911 0.15907332
000280 e8 43 c4 3d 82 99 3e 3e 2f f1 ce 3d 92 4b 33 3e
       0.095832646 0.18613246 0.10104596 0.17509297
000290 c6 6e 2a 3e f5 12 20 3d 8b 41 23 3c cd 36 21 3e
       0.16643819 0.03908058 0.009964357 0.15743561
0002a0 d1 04 f9 3d ea 9a 13 bd ac 17 e1 3c a5 37 36 3e
       0.12159122 -0.03603641 0.027477108 0.17794664
0002b0 79 15 e6 bd 75 05 0f 3e 80 ac 92 3e 57 76 5b bb
       -0.11234564 0.13966925 0.28647232 -0.0033487284
0002c0 62 f5 09 3e c2 62 ae 3e cd e8 fd 3c ec 23 d8 3d
       0.13472512 0.3405972 0.030994797 0.105537266
0002d0 06 da 0e bd ba 03 3f 3a 20 0e c6 3b 17 24 92 bd
       -0.034875892 0.0007286627 0.0060441643 -0.0713579
0002e0 65 0d 5c 3c 14 0d af bd 0e ac e2 bd 1c 3f b1 bd
       0.013430928 -0.08547416 -0.11067973 -0.08654615
0002f0 46 bb 92 3d 1f 50 87 3d 3c f7 e8 3d 9d cb 6d 3d
       0.07164626 0.06607079 0.11375281 0.05805551
000300 b3 71 91 3d e3 c0 4c bc 0b 1e ba bd c0 89 46 3d
       0.071017645 -0.01249716 -0.090877615 0.048471212
000310 b1 d3 8e bd c5 10 a3 bd b2 35 32 bd 29 eb ea bc
       -0.06973971 -0.07962183 -0.04350824 -0.028676586
000320 11 17 b7 3c cc 28 2c bd 26 15 ed bd 70 0c 43 bc
       0.022349866 -0.042031094 -0.11576299 -0.011904821
000330 b6 86 5b bd ac 76 af bd e2 b4 b9 3c 94 92 aa bb
       -0.053595267 -0.08567557 0.02266926 -0.0052054618
000340 c5 78 90 3d 06 df a3 3d 68 7a 12 3d 8e 76 38 3c
       0.07054285 0.08001523 0.035761267 0.011258734
000350 df 3a 1b bb 55 ae 26 3c 0e c2 f3 bc 57 f7 a9 bc
       -0.0023686213 0.0101734 -0.029755618 -0.020747824
000360 56 96 29 3d a5 52 a1 3d c1 64 5c bd 9d 45 da 3b
       0.041403137 0.07877091 -0.053807024 0.0066611306
000370 9f ea 1d bd 4e ca 7f bd 62 d6 95 b7 10 5d 71 3d
       -0.03855383 -0.062448792 -1.7862014e-05 0.058926642
000380 ec de 8c 3d 51 d0 07 3d af 41 cd bd 86 04 b7 bd
       0.068784565 0.03315765 -0.10022294 -0.0893641
000390 34 f0 99 bc 90 54 d3 bc 57 b5 25 bd 2f 7a d7 bd
       -0.018791296 -0.025797158 -0.040456142 -0.105213515
0003a0 07 c2 a1 3c 17 f0 d9 bd 84 98 88 bd fc f4 ba bd
       0.01974584 -0.10641497 -0.06669715 -0.09128758
0003b0 1b e1 bd 3d 73 6c cc bd ef d9 a2 3d a0 3a 68 bb
       0.09271451 -0.099816225 0.07951724 -0.0035435334
0003c0 d8 d9 48 bc f3 06 87 3d f8 9f 1f bc 47 16 93 3d
       -0.012258969 0.06593122 -0.009742729 0.071819834
0003d0 0c 5a 5b 3d be a1 e2 bd 05 b3 8f 3d 5c 93 51 3c
       0.053552672 -0.11066006 0.07016567 0.012791481
0003e0 05 1c 95 bc 95 f1 04 3d cc 55 0c 38 a9 83 8c bd
       -0.018201837 0.032456953 3.3458506e-05 -0.0686105
0003f0 57 a4 e7 3a fe e2 a1 3d 54 95 73 3d c3 30 66 3b
       0.0017672878 0.079046234 0.059468582 0.003512428

bias f4 [10]
000000 36 f3 7b 3c 61 b8 8b 3c dd af 05 be 47 9b c7 bd
       0.01537781 0.017055692 -0.13055368 -0.09746414
000010 72 a4 a1 bb aa dd fa bc 39 56 23 bc 9d 77 af bc
       -0.0049329335 -0.030623276 -0.009969288 -0.02141934
000020 6d d1 a2 3a 76 0c 8a 3c
       0.0012422033 0.016851645

weight f4 [10, 10, 3, 3]
000000 82 9f 3a bd 62 f5 98 3d 4f 7f 18 3d 5a 90 ce bd
       -0.045562275 0.07468678 0.037230786 -0.100861266
000010 b8 03 02 be b4 81 21 be 24 c6 e2 bd c8 4b 09 be
       -0.12696731 -0.15772134 -0.110729486 -0.13407815
000020 e8 e7 fc bd 66 20 0b bd cd 77 c1 bd 28 5c 78 bd
       -0.1234892 -0.033966444 -0.09446678 -0.060634762
000030 de bc 2d bd 7b 71 7a 3d 52 7e 7b bd 09 7a a6 bd
       -0.042416446 0.06114338 -0.061399765 -0.08128745
000040 71 28 7f 3b cf ef b8 bc 5b b0 85 3d cb 09 ab 3c
       0.0038934017 -0.022575287 0.06527778 0.020878693
000050 ca 20 77 3d c3 9e ee bd fe dc 1d 3c db a7 49 3d
       0.060334004 -0.11651375 0.009635208 0.049232345
000060 eb f0 dc bd d6 ea 85 3d 95 66 ee 3c 59 8d 27 bb
       -0.10788139 0.06538932 0.02910165 -0.0025566428
000070 26 43 5f 3d f2 8a f6 bc a3 c8 df bd fd 04 b6 3c
       0.054507397 -0.030095551 -0.1092694 0.022219175
000080 c7 dd 04 3d ef ac 9a bd 64 92 05 3d 5c e8 c1 bd
       0.032438066 -0.07552516 0.032610312 -0.09468147
000090 d9 5d 18 3e 80 8a f6 3d cb 39 a1 3d 2e 4a 25 3b
       0.1487955 0.120381355 0.07872351 0.0025221216
0000a0 cf 3f b0 3d 2e b1 93 3d d7 cd b5 3d e3 5a 8c 3d
       0.086059205 0.07211529 0.088771515 0.06853273
0000b0 f9 66 07 3e 42 18 29 3d 74 45 dc bc d4 da 08 3e
       0.13222875 0.0412829 -0.026888587 0.13364726
0000c0 71 01 e0 3d 20 6f d6 3d 1c 90 97 3d 76 b5 bb 3d
       0.10937775 0.10470414 0.074005336 0.0916547
0000d0 39 0d 6d 3d a9 09 d8 3d 2c 76 2d 3e 9e a8 cb 3d
       0.05787394 0.105487175 0.1693961 0.099442706
0000e0 07 7a 9f 3b 11 62 9f 3d 0b 97 21 3d f3 86 e0 3d
       0.0048668417 0.077823766 0.039450686 0.109632395
0000f0 5d ee 07 3d 49 f6 81 bd 35 46 41 3d 19 29 59 3d
       0.033186305 -0.06345803 0.047186095 0.05301771
000100 ad 09 a8 3c 51 fc 1c 3e cc c8 17 3d c1 1e fc 3d
       0.020512426 0.15330626 0.03705673 0.12310553
000110 82 bc a8 3d 25 15 69 bd 72 78 2a 3d 60 2d ef 3d
       0.0823908 -0.05690493 0.04161877 0.116785765
000120 bc 6f 11 3d 5d ad 9b 3c f5 72 36 3e f3 4d 39 3e
       0.03550695 0.019003564 0.1781729 0.18096142
000130 c0 73 b2 3c 25 f2 03 3e 36 45 6b 3d 04 52 8e bd
       0.02178371 0.1288534 0.05743905 -0.06949237
000140 54 42 24 3d c3 4e 8a 3d 30 7b bb bc da 9c 7b 3d
       0.040102318 0.06753304 -0.022885889 0.061428882
000150 0b ac 66 bd 1f 2f af 3d 10 86 ee 3d 3b a9 a3 3d
       -0.056316417 0.085539095 0.11646664 0.079912625
000160 16 ca ea 3c a8 59 6f 3d f7 b5 07 3d c8 15 17 bd
       0.028660815 0.058435112 0.03313252 -0.036886007
000170 af 25 6f be 87 dc de 3d 02 51 be bc d5 06 f8 bd
       -0.23354219 0.10881906 -0.023231987 -0.12110678
000180 08 3d 7a 3e ce db 3e 3c cb 6f 09 be ce 49 e0 3d
       0.24437344 0.011649085 -0.13421552 0.10951577
000190 45 0f fb 3d 2e 9b c7 bd e2 ca 4e 3e 08 b7 af 3c
       0.12258772 -0.09746395 0.20194581 0.02144958
0001a0 c1 2b a1 bd 5f 20 3b 3e a5 50 16 bd 97 09 68 be
       -0.078696735 0.18274067 -0.036698002 -0.22659908
0001b0 8d 00 08 3d f9 31 66 3d 32 36 26 bd 6e c1 e1 3c
       0.03320365 0.0562 -0.04057903 0.027558055
0001c0 f6 bc c6 3c 96 84 82 3d 7a 8f 3a bd 7b eb 3e 3d
       0.024260025 0.06372945 -0.045546986 0.04661129
0001d0 e5 15 c9 3d 82 c4 be bd 29 a0 b9 bc 02 38 8b bd
       0.09818629 -0.09314825 -0.022659378 -0.06797792
0001e0 db 8b 35 3b 46 82 8d 3d ec 43 d8 bc 76 c1 fa bc
       0.0027701769 0.06909613 -0.026399575 -0.030609827
0001f0 95 4b 87 3d b8 aa c6 bd 74 10 67 3d 70 f4 3c 3d
       0.06606213 -0.09700531 0.056412175 0.04613155
000200 5b 3b 4d be fa 8a fa 3d 13 cf 34 bd 48 88 34 be
       -0.20042174 0.12233539 -0.044142794 -0.17630112
000210 74 8d 13 3e d6 5d 25 3d 0d 78 8c be 93 97 ba bd
       0.14409429 0.040372692 -0.2743534 -0.09110942
000220 71 09 11 3e fe f0 ad 3d 50 bd 10 be f7 68 de 3d
       0.14163758 0.08493231 -0.14134717 0.10859864
000230 d2 7a 06 be ad 83 46 bd d8 95 1b 3e 1a 1a 93 bc
       -0.1313279 -0.04846542 0.1519388 -0.017956782
000240 bd 53 47 bd 05 80 1a 3e 59 c8 8e 3d 0d 81 56 bc
       -0.048663843 0.15087898 0.06971807 -0.013092292
000250 db eb 28 3e bf d5 22 bd 8f f6 d6 3c 79 ff 88 3c
       0.16496222 -0.039754625 0.026240615 0.016723381
000260 bd 97 7a 3d c9 45 04 3d 8b cb 52 3d c7 66 1f be
       0.061179865 0.032293115 0.051463645 -0.1556655
000270 4f 8c 7c bc 48 28 a5 3d ad 88 4e be b2 65 f7 3c
       -0.015414312 0.08064324 -0.20169325 0.03019986
000280 70 0f 1b 3d f0 1f e7 bd 49 6f 45 be c6 4f b5 3c
       0.03785652 -0.112853885 -0.19280733 0.022132766
000290 32 34 09 be cb 8c 77 be c8 f0 73 bd 49 5c bd bd
       -0.13398817 -0.24174802 -0.0595558 -0.092461176
0002a0 85 9f 66 be fe 69 2f bd 4a a0 83 be 18 59 d5 3d
       -0.2252179 -0.04282569 -0.25708228 0.10417384
0002b0 e9 1e 4b bc e1 06 a3 bd 82 a3 29 3e a1 1d a5 3c
       -0.012397506 -0.079602964 0.1656628 0.02015573
0002c0 79 1a 29 be 92 30 3f 3d e5 0a 52 3e 1d 80 5b 3c
       -0.16514005 0.04667718 0.20511968 0.013397244
0002d0 61 13 de 3b 3b a4 41 3d bd 69 f1 bd 81 8b d0 bd
       0.0067772125 0.047275763 -0.11787746 -0.10182858
0002e0 0a 75 87 bb 21 f5 f9 bc 26 2d dd 3d 25 da 18 bd
       -0.004133825 -0.030512394 0.10799627 -0.037317414
0002f0 38 92 28 3c 3d da 1d 3d 87 a1 f0 3c 36 11 23 be
       0.0102887675 0.038538206 0.029373897 -0.15924534
000300 a8 d7 7f 3d b6 3f 06 be 11 51 1f 3d 02 80 82 bc
       0.062461525 -0.13110241 0.03889567 -0.01593018
000310 cf 38 ec bd 2b f9 14 bc 7d fa d7 3b 84 af b2 bd
       -0.11534273 -0.009092609 0.00659114 -0.08724883
000320 d9 86 1c bd b5 96 ec b8 f0 1a 82 3d b2 ed 01 bd
       -0.03821454 -0.00011281428 0.06352794 -0.031720825
000330 02 d2 7c 3d 76 5d a3 3c 8c ff 9e 3c 31 64 df 3c
       0.061723717 0.019942027 0.019408964 0.027269455
000340 b3 e2 9f bd ef 6f bd bd 3a da cd bc 41 1c d4 bd
       -0.07806911 -0.09249865 -0.025128473 -0.103569515
000350 89 a6 99 bd 07 e5 bb 3b 3f e2 97 bd ab 85 6c bd
       -0.07502467 0.0057340893 -0.074162 -0.057744663
000360 9a 25 93 bd c8 8f 83 bd ac 6c b8 bd 6a b8 30 bd
       -0.07184906 -0.064239085 -0.090051025 -0.04314462
000370 cd e8 8d bd 39 d9 4e bc e4 18 7c bc f1 fc c1 bd
       -0.06929169 -0.012625032 -0.015386794 -0.09472073
000380 06 54 81 bd ae cb f4 bc 63 9a b0 bd d8 fc 33 bb
       -0.06314854 -0.029882278 -0.08623197 -0.002746394
000390 3a cd 26 bd 78 1c b7 3c 06 d7 25 3b 77 06 68 3d
       -0.040723063 0.022352442 0.0025305166 0.05664679
0003a0 49 96 c5 bc 8f 09 a7 bd 06 39 70 3d 79 b5 4b bd
       -0.024119513 -0.0815612 0.05864813 -0.049733613
0003b0 31 c9 c7 3c 90 4e b1 bc c6 34 bf bc 68 65 d6 bb
       0.024387928 -0.021643907 -0.023340594 -0.0065428503
0003c0 9d 96 db 3d e8 61 8f 3d 17 d4 5b 3d 09 f4 4d 3d
       0.107220866 0.07001096 0.05366906 0.05028156
0003d0 a0 ff 12 be 14 65 e4 bc 95 8b 1d 3d 09 a5 1c 3d
       -0.14355326 -0.027880229 0.038463194 0.038243327
0003e0 d8 96 00 be 9a 14 d0 3c 15 ca 95 bd bd d5 3b bd
       -0.12557542 0.025400449 -0.07313935 -0.045858134
0003f0 59 59 9e bd 16 f2 10 be 15 43 25 be d1 45 de bd
       -0.077318855 -0.14154848 -0.16138871 -0.1085316

bias f4 [10]
000000 e3 2f 5f 3c 30 ca be bb d9 d8 8c 3d ea e2 16 3c
       0.013622257 -0.0058224425 0.06877298 0.009209374
000010 80 a7 f1 bd 92 9e 47 bd 5f 87 91 3c 13 40 ee bb
       -0.11799526 -0.04873521 0.017764745 -0.007270822
000020 73 fa 9e 3c 0a 81 de bd
       0.019406533 -0.10864456

weight f4 [10, 10, 3, 3]
000000 e4 47 6a 3d af e5 fb b9 6e 7b c2 3c 7c 65 fc bd
       0.057197466 -0.00048045578 0.023740496 -0.12324044
000010 00 59 bf bd 4f bf 9b 3c 73 1e 17 bd 21 5c b5 3c
       -0.09343147 0.019012121 -0.036894273 0.022138657
000020 23 f3 88 bd 49 f1 3d 3e 8d a4 6c 3e e2 d5 90 3d
       -0.06687 0.18549074 0.23109646 0.07072045
000030 f2 6d 39 3e ec 98 51 3e 8d 58 20 3e ee 7f 27 3e
       0.18108347 0.20468491 0.1565878 0.16357395
000040 76 20 66 3e 79 93 cf 3d 81 4b a8 bc 2e 25 fd 3a
       0.2247332 0.1013555 -0.020543816 0.0019313449
000050 07 94 3f 3c 92 15 31 bd 06 f4 84 3d ab 26 c0 3d
       0.011693007 -0.04323346 0.06491856 0.09382375
000060 51 01 df 3b 12 62 15 bc 4e 6b ea 3d fe 80 d0 bd
       0.006805577 -0.00911762 0.11446248 -0.10180853
000070 1c 41 c7 3d 0d 47 be 3d 32 3b e0 3c 34 e0 21 bd
       0.097292155 0.092908956 0.027371977 -0.039520457
000080 66 12 bc bd ea 06 8b 3d 83 5a a0 bd e3 51 9b bb
       -0.09183197 0.06788428 -0.07829764 -0.0047399863
000090 ea 48 ec 3c bd fd dd bd 68 65 9f 3d 5a 20 c2 bd
       0.028843362 -0.10839412 0.077830136 -0.09478827
0000a0 78 ed cc 3c 74 fe c0 bd d5 65 8b bc f2 ad 71 3c
       0.025015578 -0.09423533 -0.01701633 0.014750944
0000b0 8f c9 a6 3d 72 cb f8 3d e2 75 88 3c ad 4a 3e bd
       0.08143913 0.12148179 0.016657773 -0.046457935
0000c0 d4 c4 fd 3d 3f e8 cb bc 67 76 0a be 56 f6 c0 bc
       0.123910576 -0.024891017 -0.1352173 -0.023554962
0000d0 b4 c6 bb bd 37 7d 3e bd fe 1d b4 3d 97 55 b2 3c
       -0.09168759 -0.046506133 0.08794783 0.021769328
0000e0 92 3d 57 3c 7c ff 38 3d a3 6e 14 be ac 6d 1a be
       0.013137238 0.045165524 -0.1449533 -0.15080899
0000f0 d3 20 be bd 5b 25 0a be 21 14 ff bc fe c8 ef bc
       -0.092836045 -0.13490812 -0.031137528 -0.029270645
000100 9d d1 8f 3d 49 5f cf 3c 74 22 39 be e6 78 e7 bd
       0.070224024 0.02531399 -0.18079549 -0.113023564
000110 74 84 94 3c 55 ae 1b 3d 03 aa 82 bd 56 33 e7 bd
       0.018129565 0.038008053 -0.063800834 -0.112890884
000120 c0 be 2e 3d 61 bc 55 3b 31 7f 54 3d 81 73 db bc
       0.042662382 0.0032613503 0.05187911 -0.026788475
000130 5d b6 61 3d b0 94 1b 3c 41 31 1b bc f0 e5 98 3d
       0.055105556 0.009495899 -0.009472192 0.07465732
000140 9d 44 4e bc 60 81 65 bb c2 b9 50 bd a0 c6 cc bd
       -0.012589601 -0.003501974 -0.050958402 -0.09998822
000150 30 3b 8b 3c 54 87 f9 3c 9b 61 59 bd 05 6e 84 3d
       0.016995996 0.030460037 -0.0530716 0.06466297
000160 9a a7 c1 bd fc 19 d0 bd cf 98 a0 bd 94 3b 18 bd
       -0.094557956 -0.10161206 -0.07841646 -0.037166193
000170 6b f4 1e 3c 3c 39 13 bd 1d b9 0d 3d 6f f4 b1 bd
       0.0097018285 -0.035943255 0.034600366 -0.086892
000180 5b 75 24 3c 83 3e 2e bc 7f 77 e2 3c ac f6 3d 3e
       0.010037745 -0.010635021 0.02764487 0.18551129
000190 b5 c3 83 3d 69 d5 0b be ae 26 1c bc 28 02 28 3a
       0.064338125 -0.13655628 -0.009530706 0.0006409013
0001a0 0f a6 e6 bd 0f 23 d2 3d 48 3a 5e 3d 76 7d 97 3d
       -0.11262142 0.10260593 0.0542548 0.07396977
0001b0 c9 44 c8 3d 44 cf 47 3d eb 74 83 3d e4 5a aa 3d
       0.09778745 0.04878165 0.06418785 0.08318117
0001c0 7d 7d 72 3d 46 23 1a 3e 36 0f ef bc 3d ed e3 3d
       0.059201706 0.15052518 -0.029182058 0.11129234
0001d0 e7 dd 99 39 e8 ee b6 bd 06 73 2a bc 95 09 97 3d
       0.00029347764 -0.089322865 -0.0104034 0.073748745
0001e0 5a e0 95 3d e0 39 ef 3c 14 0d 07 3b 22 30 fe 3a
       0.07318182 0.029202402 0.002060716 0.0019393007
0001f0 21 ab 09 bd 9c 0c 43 3b 5e cc 88 bb 2b ce 7c 3d
       -0.033610467 0.0029762154 -0.004174753 0.061720055
000200 d0 1c db 3c 67 b6 60 bd 7c dc 54 3c e1 6b c9 bd
       0.026747137 -0.054861452 0.012992021 -0.098350294
000210 b6 07 8c bd ce 05 3c be 28 0a 65 3a c4 4d 34 bd
       -0.06837408 -0.1836159 0.000873717 -0.044019476
000220 47 a9 13 3e c2 a3 13 3e 2d f6 36 bd df a0 55 bd
       0.14420043 0.14417937 -0.044668365 -0.05215537
000230 d7 57 82 3d d5 2d fb 3d 0f b8 3e 3e 43 c4 ec 3d
       0.0636441 0.12264601 0.186249 0.115608715
000240 83 52 07 3d b4 52 ea bd 78 2d 8e bd 39 ee 7f bd
       0.033037674 -0.114415556 -0.06942266 -0.062483046
000250 3b 3e d2 3c 19 b8 a9 bc e8 40 bb bd 4b 9d 8c bd
       0.02566444 -0.020717667 -0.09143239 -0.06865939
000260 41 0e 5c bd d7 d8 14 be 3f 80 0d bd a5 6d 6b 3b
       -0.05372453 -0.14535843 -0.034546133 0.0035923508
000270 a1 7c 5d bd 9c d0 b0 bd 7b 37 10 bd 6d aa e0 bd
       -0.054073934 -0.08633539 -0.03520916 -0.10970006
000280 48 f3 d1 bd 9e 75 07 bd 76 40 bd 3d 0e a5 1e bd
       -0.1025148 -0.033071153 0.092408106 -0.038731627
000290 48 59 2c 3d 52 e6 5b bc fd aa 49 3c b2 56 fa bc
       0.042077333 -0.013421612 0.012308833 -0.030558918
0002a0 82 7b 1f 3e a0 ce 21 3e b8 bc 92 3d 97 29 89 3d
       0.15574458 0.15801477 0.071649015 0.06697386
0002b0 63 93 b0 3d 02 76 56 3d e2 5c 5e 3d 94 83 cd bd
       0.08621862 0.052358635 0.0542878 -0.10034862
0002c0 b8 da ca bd f8 b1 a5 bd 12 0c 07 3d c5 ba ba bd
       -0.099049985 -0.080905855 0.032970496 -0.09117655
0002d0 89 1a d1 bd 9a 8e e8 bd f0 21 1d be fb 11 28 bd
       -0.10210139 -0.11355324 -0.15344977 -0.041032773
0002e0 fe 36 d0 bd 9f 59 41 be 54 dc 56 3d 7a 3b 1a be
       -0.10166739 -0.18881844 0.052456215 -0.15061751
0002f0 f1 37 32 be 64 de 1d 3e d1 28 79 3e 12 4f 17 3e
       -0.17404152 0.15416867 0.24331976 0.14776257
000300 65 0d d7 bc 34 9f d9 3d b6 4d 5b 3e 70 86 a6 3d
       -0.026251504 0.10626069 0.21416363 0.08131111
000310 ad 92 2f 3e a2 22 0d 3e 89 b5 b9 bd e7 4a dc bd
       0.17145796 0.13782743 -0.09067828 -0.10756474
000320 d0 cf f2 bc da 8a 07 3c 13 85 62 bd cb 7b 91 bd
       -0.029640108 0.008272851 -0.05530269 -0.0710369
000330 2f 0d 68 3d 9f 17 81 bd 58 a5 0e bd 26 8a a6 bd
       0.056653198 -0.063033335 -0.034825653 -0.081318185
000340 2d 19 1d bd 8f 67 eb 3d 9a ab 18 3d 88 be 50 bd
       -0.038354088 0.114943616 0.037273027 -0.050962955
000350 16 28 55 3b cf 24 8c 3d e1 6d fc bc 9e 6b ea bd
       0.0032525114 0.06842958 -0.030814113 -0.114463076
000360 2c 95 be bd 0d 6a e5 bd 42 f7 db bc b3 60 ff bd
       -0.09305796 -0.11201868 -0.0268513 -0.12469616
000370 09 02 6a bd 53 31 86 bd 16 3a 97 3d 71 1a 5a 3d
       -0.057130847 -0.065523766 0.07384126 0.053247873
000380 1a 8a 23 3d 94 6c b5 ba 13 a4 77 3c 2e 42 6f 3d
       0.039926626 -0.0013841563 0.015114802 0.058412723
000390 01 9a 8a bd 54 a5 aa 3d 9b 10 b5 3d 92 f3 11 3c
       -0.06767655 0.08332315 0.08841058 0.008908169
0003a0 3d 1d 87 bc e2 61 c2 3d c1 70 f8 3d b2 11 16 bd
       -0.016493434 0.09491326 0.12130881 -0.03663797
0003b0 25 84 35 3d 17 38 0b 3d a8 4d f8 3c dc 6d e2 3c
       0.044315476 0.03398904 0.030310467 0.027640276
0003c0 9d 7e 16 3e f2 0a 81 3d 65 e2 fe bc fa 36 a0 bd
       0.14696737 0.06300916 -0.031113813 -0.07822986
0003d0 8d 62 75 3c ab 4d 9e 3c 84 d8 14 bd 2c c3 84 bd
       0.01497711 0.019324144 -0.036339298 -0.064825386
0003e0 b1 8e cc bd 2c 6a 63 bd e3 35 e2 bd 57 97 4e bd
       -0.09988154 -0.055521175 -0.11045434 -0.050437298
0003f0 fc f6 14 3e 90 b1 45 3e 5d a7 8c 3d 77 46 49 3e
       0.14547342 0.19306016 0.068678595 0.19655786

bias f4 [10]
000000 75 fe 18 3d f2 e1 df 3d 90 01 03 3d f2 13 ed bd
       0.037352044 0.109317675 0.031983912 -0.1157607
000010 79 28 ca bb 08 91 37 bd 08 b4 5b bd c0 31 b4 3d
       -0.0061693755 -0.044816047 -0.053638488 0.087985516
000020 43 27 88 bd 5a 84 b5 bd
       -0.066481136 -0.08863135

weight f4 [2, 2560]
000000 cb 1c 1d bc da dd fe 3c 31 71 06 3d a4 e0 38 3d
       -0.009589384 0.031111646 0.03282279 0.04513611
000010 20 de 35 3c b6 3f ad bc ea de 46 3c ca cc 74 3c
       0.011100322 -0.021148544 0.012138108 0.014941404
000020 7c cf 65 bc 83 0a 09 bd 5c da 13 bd d1 e2 2d bc
       -0.014026519 -0.03345729 -0.036096916 -0.010613159
000030 c4 49 91 3a c5 50 10 bd 6a aa 6a 3c a4 98 28 bc
       0.0011084606 -0.035233278 0.014322856 -0.010290299
000040 47 7a af 3b 88 6c 3f bc 8e 2e be bc ea 2f 99 bc
       0.0053551528 -0.011683591 -0.023215558 -0.018699605
000050 38 8b 2d bc 9d 34 41 bd 93 4f 2f bb ba 08 3b bc
       -0.010592274 -0.047169317 -0.002675031 -0.011415655
000060 70 58 75 bc cd ac 88 bd ca 79 45 bd 95 18 ef bb
       -0.014974698 -0.06673584 -0.04821185 -0.0072966316
000070 d1 d7 4d bd 7e 5a 57 bd aa 90 49 bd 76 57 3b bd
       -0.050254647 -0.052576534 -0.049210228 -0.045737706
000080 af e7 2c bb 95 f3 47 3c 78 3c 41 bb 45 26 39 3d
       -0.0026383211 0.012204071 -0.0029485505 0.045202512
000090 c9 d1 ee 3c 7a 43 a5 3b 75 ed 15 3c 47 82 c2 bb
       0.029152768 0.005043444 0.009150852 -0.0059359404
0000a0 a6 53 2b 3c 3f 3a 13 bc 02 fb db bc ff eb 82 3b
       0.010456955 -0.008986055 -0.026853088 0.003995418
0000b0 2b 0b 4b bc 07 f9 10 3d 6d d5 b5 bc 12 a3 63 bd
       -0.012392799 0.03539374 -0.022196496 -0.055575438
0000c0 b1 68 90 bb 05 50 dd 3c 31 ec 17 3d 9c 75 85 3d
       -0.0044070114 0.027015695 0.037090484 0.06516573
0000d0 48 a6 79 bb 44 7e b5 3c 64 b8 dd 3c ea 4b ec 3c
       -0.0038093496 0.022154935 0.027065463 0.028844792
0000e0 6e 34 40 3d f9 01 68 3c c0 ea 01 bc 2e 62 05 bc
       0.046925 0.014160627 -0.007929504 -0.008141084
0000f0 a7 ba cd 3b 39 c9 49 3d 8d 0d 9a bc f0 65 24 bd
       0.006278354 0.049264167 -0.01880529 -0.040136278
000100 4d c4 c0 3c df 35 81 3c 39 08 b8 3c 8b 92 0f 3d
       0.023531104 0.015772758 0.022464858 0.035051864
000110 9b 32 17 3c df ee 06 3d 92 27 49 3d 97 d4 08 3d
       0.009228374 0.03294265 0.049110003 0.033405866
000120 9f 16 12 3d 95 6a 0d 3d a0 22 47 3a 53 f8 bb bb
       0.035666104 0.034525473 0.0007596407 -0.0057363897
000130 d4 d8 7b 3d 61 d1 4b 3d bc 1b 93 bb 95 a6 11 bd
       0.06148608 0.049760226 -0.00448939 -0.035559256
000140 61 43 16 3d bd 1d 45 3b 72 1a cb 3b f5 50 3b 3d
       0.03668535 0.003007754 0.006198221 0.045731504
000150 4c be 53 3d a2 f0 90 3d 87 7a 9b 3d fa c4 86 3d
       0.051695153 0.07077147 0.075917296 0.06580539
000160 3d 2d 7f 3d 54 41 8c 3d de 93 4e 3d 9b 0a b9 3c
       0.062299002 0.06848398 0.050433986 0.022588065
000170 23 98 6b 3a 40 aa 39 bc bb ed af 3c 28 31 09 bc
       0.0008987209 -0.011332095 0.021475663 -0.008373536
000180 e7 78 a3 3c 24 25 aa 3c b2 4e 01 3d e2 34 1d 3d
       0.019955112 0.020769663 0.03156919 0.03838051
000190 0b 5e f2 3c e2 4a 58 3d 74 39 ae 3d 19 0f 89 3d
       0.029585859 0.05280579 0.08507052 0.06692333
0001a0 fe 7b 7d 3d 78 a5 8e 3d ad 0b 38 3d a5 25 12 3d
       0.061885826 0.069651544 0.04493301 0.035680432
0001b0 5d 8c 95 bb c4 bf f2 bc db 50 ec 3c f6 0f ca bb
       -0.0045638517 -0.029632457 0.028847149 -0.0061664535
0001c0 42 de 1c 3d dc c8 a7 3b fd 25 5a 3d b4 28 98 3d
       0.0382979 0.00512038 0.053258885 0.074296385
0001d0 af 38 26 3d 2a d5 36 3d c0 45 7c 3d 76 49 9c 3d
       0.0405814 0.044636883 0.061589956 0.07631199
0001e0 18 82 08 3d 07 c9 55 3d c3 2c 47 3d fd 6a 8d bc
       0.033327192 0.052193668 0.048626672 -0.01726293
0001f0 62 af e0 3c a7 1d 91 3c cc e1 41 3d 9a 8f d5 bc
       0.027427379 0.017714335 0.047334477 -0.026069451
000200 a5 09 7a 3d 16 32 e2 3c f8 ad b0 3c 86 2b 35 3d
       0.061044354 0.027611773 0.02156733 0.04423096
000210 79 68 63 bb 3f 26 4f 3d 1f 5f 29 3d 66 de 4f 3d
       -0.0034699722 0.050573584 0.04135048 0.050749205
000220 72 b7 68 3d e6 ab 52 bc ad b1 a4 3b d1 44 4b bd
       0.056815572 -0.012858367 0.0050260634 -0.049626175
000230 63 e9 eb 3c 8d af 7e 3d ae eb 88 3c 6d c5 3f 3b
       0.02879781 0.062179137 0.016713943 0.0029261962
000240 63 b8 5f 3d 01 2f 51 3d ef 3b 21 3c 0b 79 46 3d
       0.054619204 0.051070217 0.009840949 0.04845528
000250 14 6d 62 3d cc 7f 6d 3d 5a f4 41 3c 9c 0c 49 3d
       0.055279806 0.057983205 0.011838043 0.04908429
000260 fa 11 39 3d 37 41 a7 3b 2d 68 bc bb 66 9b a2 bb
       0.04518316 0.0051042098 -0.0057497234 -0.0049623726
000270 2c 92 a5 3b b8 02 23 3d 56 af 2e 3d ae 64 8c bc
       0.0050528254 0.039797515 0.042647682 -0.017137852
000280 5b 03 53 3d b2 0b 30 3d 99 d6 3e 3d d7 99 10 3c
       0.051516872 0.042979904 0.046591375 0.008825741
000290 96 7e ca 3c 49 76 45 3d 0d 12 16 3c 64 6a e0 3c
       0.024718564 0.04820851 0.009159577 0.027394481
0002a0 79 04 22 3d 09 aa 97 bc 3d 3d da bb 90 79 71 bc
       0.039555047 -0.018513696 -0.006660132 -0.014738455
0002b0 26 d2 80 bc 04 5a 05 3c d7 ee 39 3d 32 ce 56 bb
       -0.015725207 0.008139137 0.04539379 -0.003277671
0002c0 06 8a 0f 3d 1b d0 81 3c 78 f5 4b 3c 7a 3c a0 3a
       0.03504374 0.015846303 0.012448661 0.0012225055
0002d0 6a 6b 00 3b 5c cc 05 3d 4b 6e 42 bc b3 e1 41 3d
       0.0019595274 0.032665595 -0.011867116 0.047334384
0002e0 ee b6 2b 3a ec b1 98 bc 4e f2 a5 3c 5f 56 59 ba
       0.0006550391 -0.018639527 0.020257141 -0.00082907634
0002f0 5f ba 0c bb 83 a0 8c bc 63 f6 d2 bc e6 95 6d 3c
       -0.002147339 -0.017166382 -0.025752252 0.014501071
000300 7d a6 f1 3c 77 6a 6f 3c 7b 0a 35 bc f5 20 0e 3d
       0.029498333 0.014612786 -0.011049862 0.0346994
000310 c9 ed 5a 3d 9d 64 d4 3c 36 3f 15 bc b1 98 a4 3c
       0.053449426 0.025926882 -0.009109309 0.02009234
000320 76 0b 35 3d 0d 3f be 3c 4b 42 31 bb 44 69 03 3c
       0.044200383 0.023223424 -0.002704757 0.008020703
000330 6e 9f 1e 3c 38 f9 9d bc 11 06 2b bc 0e 72 02 3d
       0.009681566 -0.019283876 -0.010438458 0.031847052
000340 82 86 b4 bb e5 db e9 3b c7 6e ca 3b 3f f8 e8 3c
       -0.0055091986 0.007136809 0.0061777565 0.028438685
000350 fb ed 94 3c aa 5b af bc e3 18 15 bd 93 39 73 bc
       0.018179884 -0.021406014 -0.036400687 -0.01484527
000360 c6 48 29 bc a8 24 e0 3c 2b 15 f4 bc 2a 9b 95 3a
       -0.010332292 0.027361229 -0.02979525 0.001141404
000370 62 a3 ce bc 64 78 69 bd c3 35 88 bc c4 85 50 3d
       -0.025224391 -0.05699958 -0.016627198 0.05090882
000380 af e4 55 bc 52 75 b6 3c 29 0e 40 3d d1 a8 3a 3d
       -0.013055011 0.02227274 0.046888504 0.045571152
000390 6a 78 c0 bc fc dc 53 bd 91 4f 6c bd f6 83 d1 bc
       -0.023494918 -0.05172442 -0.057693068 -0.02557562
0003a0 86 fd 11 bd af b0 b9 3b 09 71 51 bb 90 f3 18 ba
       -0.03564217 0.0056668143 -0.0031958243 -0.00058346335
0003b0 b4 02 41 bc 90 fd 42 bd 1d 39 87 3b 0b d2 ef 3c
       -0.01178043 -0.047605097 0.0041266815 0.029274961
0003c0 bb e6 d2 3b 3e 74 14 bc 5b 9d 0c 3c c9 b0 9e 3b
       0.0064361966 -0.009060917 0.008582438 0.004842852
0003d0 85 d3 8b bd 0f 83 22 bd 3a 2e 8f bc 31 eb 3f bd
       -0.068274535 -0.03967577 -0.017478097 -0.046855155
0003e0 02 e6 8b bd 2d 12 17 bd 5b 2f 9b bc 6a ea 2c bd
       -0.0683098 -0.03688257 -0.01894348 -0.042215742
0003f0 b8 79 5c bc d4 15 5d bd 83 79 e7 bc 8c 74 dc bc
       -0.013456754 -0.053975895 -0.028256183 -0.026911043

bias f4 [2]
000000 c9 d7 23 bc 61 91 00 3c
       -0.010000178 0.007847161
